assets/diabetes_model.tflite (tflite, 13028 bytes, 5 tensors)

sequential_14/dense_43/BiasAdd/ReadVariableOp f4 [64]
0	0xbc0d4d38	-0.008624367
1	0x00000000	0.0
2	0xbccc7e40	-0.024962544
3	0x3b1bc240	0.0023766905
4	0x3d6a2ae7	0.05716982
5	0x3d90bebb	0.07067629
6	0xbc4bdf84	-0.012443427
7	0x3a6ebf3a	0.00091074745
8	0x3cb3d91c	0.021954112
9	0xbcf239d5	-0.029568592
10	0x3ccbfcc3	0.0249008
11	0x39822dec	0.00024829747
12	0xbc7eae01	-0.015544415
13	0x3d3afb25	0.045649666
14	0xbb9d2ad6	-0.004796366
15	0xbc6101ae	-0.013733311
16	0x3d21dbb9	0.039516184
17	0x3d02fb7c	0.031978115
18	0xba3a03e1	-0.0007095915
19	0xbcc246f2	-0.02371547
20	0xbd4536de	-0.04814803
21	0xbb2055a6	-0.0024465113
22	0xbc51f302	-0.012814285
23	0xbbad2019	-0.0052833674
24	0xbcca831e	-0.024720725
25	0x3ca192ec	0.019723378
26	0x00000000	0.0
27	0xbcd4d03b	-0.025978198
28	0x3c387033	0.011257219
29	0x3d867945	0.06566099
30	0x3d2d3163	0.042283427
31	0x392e7015	0.00016635687
32	0x3ca4b962	0.020107929
33	0xbc6bed52	-0.014399843
34	0xbc3044d3	-0.0107585965
35	0x3cadf5d9	0.021235393
36	0xbca2f773	-0.019893384
37	0xbc545a09	-0.012960919
38	0xbc60ba28	-0.013716258
39	0xbab465f7	-0.0013763298
40	0x3cfada82	0.03062177
41	0xba9adbef	-0.0011814813
42	0x3c9ff724	0.019527026
43	0xbd606b66	-0.054789923
44	0xbc2c3c2b	-0.010512392
45	0xbcbb7849	-0.022884505
46	0x3d1cbb38	0.038264483
47	0xbc0ce18b	-0.0085986955
48	0x3cb4cb8d	0.022069717
49	0x3ce4177e	0.027843233
50	0xbc8dbcd6	-0.017301958
51	0x3ce5fc5a	0.028074432
52	0x3bb4a051	0.0055122753
53	0xbb397b24	-0.0028302157
54	0xbcefb59f	-0.029261408
55	0x3c1a3756	0.009412607
56	0xbc875e08	-0.01652433
57	0x00000000	0.0
58	0x3c3e8c04	0.011630062
59	0x3af3b6b1	0.0018593875
60	0xbd081932	-0.033227153
61	0xbd14f142	-0.036362894
62	0xbcce8b55	-0.025212923
63	0x38c6b240	9.4745774e-05

sequential_14/dense_42/BiasAdd/ReadVariableOp f4 [32]
0	0x00000000	0.0
1	0x00000000	0.0
2	0x00000000	0.0
3	0x00000000	0.0
4	0xbc24b47d	-0.010052797
5	0x3bf2a02b	0.0074043474
6	0x00000000	0.0
7	0x3c14da37	0.00908523
8	0x3ba905fe	0.005158185
9	0xba7e2b90	-0.00096958224
10	0xba027599	-0.000497663
11	0x00000000	0.0
12	0xbc38fbc8	-0.011290498
13	0xbbf39750	-0.0074338093
14	0x3c3bef14	0.011470575
15	0xb9f514a0	-0.00046745408
16	0x00000000	0.0
17	0x38a1dc38	7.718097e-05
18	0xbbdbc218	-0.0067064874
19	0xbbd9b855	-0.0066442885
20	0x00000000	0.0
21	0x00000000	0.0
22	0xba9ff9f7	-0.0012205233
23	0x3cab920b	0.020943662
24	0x00000000	0.0
25	0xbc5db9a1	-0.013533027
26	0xbc4ec878	-0.012621038
27	0x00000000	0.0
28	0xba9c5bfa	-0.0011929267
29	0xb9038907	-0.0001254418
30	0x00000000	0.0
31	0x00000000	0.0

sequential_14/dense_42/MatMul f4 [32, 16]
0	0xbdc153c4	-0.09439805
1	0xbea690c5	-0.32532325
2	0x3e06d88e	0.13168547
3	0xbe9d851e	-0.30765623
4	0x3e7be25a	0.24598065
5	0x3e2622a2	0.16224149
6	0x3e3b838a	0.18311897
7	0xbdc9a33c	-0.098455876
8	0xbe9d67c3	-0.30743226
9	0xbe9f45b3	-0.31107864
10	0x3e509a1e	0.20371291
11	0x3e80eac3	0.2517911
12	0xbe92018b	-0.28516802
13	0x3e90747b	0.28213868
14	0xbe8c4cf5	-0.27402464
15	0xbe687517	-0.22700916
16	0xbe7b0fe5	-0.24517782
17	0x3dd4b908	0.103868544
18	0x3bec0ec0	0.007203907
19	0xbe613128	-0.21991408
20	0xbd90a400	-0.070625305
21	0x3ea78055	0.32715097
22	0x3e5469c6	0.20743474
23	0x3dc73ca0	0.0972836
24	0x3eb07529	0.34464386
25	0x3ea6180d	0.32440224
26	0xbe9f39e3	-0.31098852
27	0x3da8dd60	0.08245349
28	0x3cd7a380	0.02632308
29	0x3d97ed4c	0.07418308
30	0x3eafd64f	0.34343192
31	0xbe4e86af	-0.20168565
32	0xbe7e09b7	-0.24808393
33	0xbe2b6c38	-0.16740501
34	0xbe31955a	-0.1734213
35	0xbdc26118	-0.094911754
36	0xbd120ac8	-0.035654813
37	0x3d810720	0.06300187
38	0x3e95e945	0.29279533
39	0x3e4f0436	0.2021645
40	0x3c877a00	0.016537666
41	0x3e1d302a	0.15350404
42	0x3e8f48a5	0.2798511
43	0x3df3e1fc	0.119083375
44	0x3e9534fb	0.29141983
45	0x3e1acafe	0.15116498
46	0xbe21c163	-0.15796427
47	0xbea8c5ce	-0.32963413
48	0xbe2bb085	-0.16766556
49	0x3e855a2d	0.2604536
50	0x3eaef409	0.3417056
51	0xbd8a6288	-0.067570746
52	0x3db7b700	0.08970451
53	0xbe0c3e49	-0.13695635
54	0xbe8bb384	-0.27285397
55	0xbd88f6d0	-0.06687701
56	0x3e2de1ca	0.16980663
57	0xbe8bceac	-0.27306116
58	0xbd9676f0	-0.07346904
59	0xbe098e56	-0.13433203
60	0x3e3c80fe	0.18408582
61	0x3ea24ba7	0.31698343
62	0xbd048088	-0.03234914
63	0x3e647ece	0.22313997
64	0x3bd030c3	0.006353469
65	0x3e2e9bce	0.17051622
66	0x3db5bc45	0.088738
67	0x3eec0785	0.46099487
68	0xbe29b4fb	-0.16572945
69	0xbd954209	-0.07287986
70	0x3e3bcc10	0.18339562
71	0x3dccb4b3	0.09995403
72	0x3e334d14	0.17509872
73	0x3da48ed4	0.08035055
74	0x3eb4d26e	0.35316795
75	0xbeac2d60	-0.33628368
76	0x3e91b22d	0.2845625
77	0x3e72c246	0.23706922
78	0xbcc6bbf9	-0.024259554
79	0x3e099fc3	0.1343985
80	0xbce904e6	-0.028444719
81	0xbca404df	-0.020021854
82	0xbc00c116	-0.007858535
83	0xbd684fca	-0.056716718
84	0x3dbe5839	0.09294171
85	0x3c550b66	0.013003206
86	0x3ec0abb7	0.37631008
87	0x3e73611d	0.23767515
88	0xbeaf5240	-0.3424244
89	0x3e96aa76	0.29426926
90	0x3e500ad2	0.20316628
91	0xbdd50bf5	-0.10402671
92	0x3e863992	0.26215798
93	0x3eaa11c3	0.33216676
94	0xba0138b6	-0.000492941
95	0xbe4a95b7	-0.19783674
96	0xbe2f6531	-0.17128445
97	0x3e422836	0.18960652
98	0xbe0a7c6f	-0.1352403
99	0x3d4d3c80	0.050106525
100	0x3e2ac59a	0.16676942
101	0x3d523bd8	0.051326603
102	0xbe87676a	-0.26446086
103	0xbe5c3c02	-0.21507266
104	0x3e82f843	0.25580034
105	0xbe70adb4	-0.23503762
106	0x3e12a0fc	0.14319223
107	0xbe375e41	-0.17907049
108	0x3d1d0cb0	0.038342178
109	0x3dbe66a4	0.09296921
110	0xbe1e6131	-0.15466763
111	0xbd5d07a8	-0.05396238
112	0x3d7b0e4f	0.061292943
113	0x3e213a17	0.15744816
114	0xbf36e501	-0.7144318
115	0xbf29ec7b	-0.66376466
116	0xbe902a7a	-0.28157407
117	0xbee0c043	-0.43896684
118	0xbd503cc4	-0.0508392
119	0xbe79b643	-0.24385934
120	0x3d51b6bc	0.05119966
121	0xbe1fb34a	-0.15595737
122	0xbc9ea292	-0.019364629
123	0x3e97aebc	0.296255
124	0xbefff511	-0.49991658
125	0x3ddc979a	0.10771103
126	0x3eac051e	0.33597654
127	0xbdb5689d	-0.08857844
128	0x3cb78aca	0.022405047
129	0xbe7571f4	-0.23969251
130	0x3f5f2862	0.87170994
131	0x3f4fc1ea	0.81155264
132	0x3d365360	0.044513106
133	0x3e68d705	0.22738273
134	0x3ed7b4ec	0.4213022
135	0xbe56b85b	-0.20968764
136	0x3ca07fa1	0.019592108
137	0xbd9291dd	-0.071567275
138	0x3e9673b5	0.29385152
139	0x3e375ea1	0.17907192
140	0x3f13d808	0.5775151
141	0xbe406fc4	-0.18792635
142	0xbe1196dc	-0.14217705
143	0x3e000642	0.12502387
144	0xbce22a4e	-0.027608063
145	0xbbb66aa8	-0.0055669136
146	0xbe2ec98d	-0.17069073
147	0x3c5286a3	0.012849483
148	0x3d50b553	0.050954174
149	0xbe954b04	-0.29158795
150	0x3d93144e	0.07181607
151	0x3d53a326	0.051669262
152	0xbe3ab162	-0.18231729
153	0x3d5a4463	0.053287875
154	0xbe8c6c18	-0.2742622
155	0xbd3ad421	-0.04561246
156	0x3d372c11	0.04471976
157	0x3e398b77	0.18119608
158	0xbe911290	-0.28334475
159	0x3c6b8b8c	0.014376532
160	0xbcb757c9	-0.022380726
161	0x3e6e11db	0.23248999
162	0xbe80c12f	-0.25147387
163	0x3e73256f	0.23744749
164	0xbe9d0f2b	-0.30675635
165	0xbe291628	-0.16512358
166	0x3dbdf9cd	0.09276161
167	0xbe21bb2f	-0.15794061
168	0xbe53b906	-0.2067605
169	0x3e90f987	0.28315374
170	0x3e0d9b5d	0.13828798
171	0xbeafd273	-0.34340248
172	0x3e94ca76	0.29060715
173	0xbd066d3e	-0.032819025
174	0xbdec098c	-0.115252584
175	0x3cc39b99	0.023877906
176	0xbdd493b0	-0.10379732
177	0xbdfd9588	-0.123820364
178	0x3e6df6fe	0.23238751
179	0xbdef9af2	-0.11699475
180	0xbe90e3ba	-0.28298742
181	0xbe94f872	-0.290958
182	0xbe44d30f	-0.19221137
183	0x3e285c92	0.16441563
184	0xbe6c0e02	-0.23052219
185	0x3d8690ec	0.065706104
186	0x3d8d0578	0.06885809
187	0x3daeb18c	0.08529958
188	0xbe867179	-0.26258448
189	0xbe5e3329	-0.21699204
190	0x3d4e9aa0	0.05044043
191	0xbd05d080	-0.032669544
192	0x3ceb2f42	0.028709058
193	0xbe26cdce	-0.16289446
194	0x3eed08f9	0.46295908
195	0x3d2d7f1b	0.042357545
196	0xbd946a84	-0.07246879
197	0xbd4bec2f	-0.04978579
198	0x3e775383	0.24152951
199	0x3ec9371b	0.39299855
200	0xbdb274cd	-0.08713684
201	0x3da07165	0.07834128
202	0x3e006a52	0.12540558
203	0xbe7d9ec2	-0.24767593
204	0x3caccd40	0.021093965
205	0xbe7eca57	-0.24881874
206	0xbe97dd78	-0.29661155
207	0x3ce7c2bc	0.028291099
208	0x3cc8f4c9	0.024530785
209	0xbeed2bcc	-0.46322477
210	0x3f34bdc1	0.7060204
211	0x3f502467	0.81305546
212	0x3e93e3e5	0.28884807
213	0xbb5090e8	-0.0031824652
214	0x3ef28984	0.4737054
215	0x3e7a865d	0.24465318
216	0x3ed9ab9a	0.42513734
217	0x3e17a854	0.14810306
218	0x3e8aa1ea	0.27076656
219	0xbd5f0d51	-0.05445606
220	0x3d9bd66f	0.07609259
221	0x3eb1037e	0.34572977
222	0x3ca97896	0.020687383
223	0x3eb88fbf	0.3604717
224	0x3d754228	0.059877545
225	0xbd8c0c45	-0.06838278
226	0xbef44920	-0.4771204
227	0xbeb71d44	-0.35764515
228	0xbf087988	-0.5331044
229	0x3e56a768	0.20962298
230	0x3e537911	0.20651652
231	0xbed427a4	-0.41436493
232	0xbdceb0f0	-0.10092342
233	0x3e9ff605	0.31242386
234	0xbeb19b5d	-0.34688845
235	0xbe045dac	-0.12926358
236	0x3c0b7b8c	0.008513343
237	0xbe3bc896	-0.18338236
238	0xbe09a425	-0.13441522
239	0xbe99550d	-0.299477
240	0xbce940a5	-0.028473208
241	0xbe29ea06	-0.16593179
242	0x3e39dbde	0.18150279
243	0x3d05b1a0	0.0326401
244	0x3ddf2fad	0.10897765
245	0x3df5644c	0.11982021
246	0xbcda41b3	-0.026642656
247	0x3df8edd1	0.12154735
248	0xbd5cad99	-0.053876493
249	0x3e68422c	0.22681493
250	0x3b441675	0.0029920612
251	0xbe6bcc6b	-0.23027198
252	0xbe507247	-0.20356093
253	0xbe8498b9	-0.25897768
254	0x3d60bb27	0.054865982
255	0x3dd259b7	0.10271018

sequential_14/dense_43/MatMul f4 [64, 32]
0	0xbcedafc0	-0.029014468
1	0x3e308730	0.1723907
2	0x3db84e38	0.08999294
3	0x3dfaea40	0.12251711
4	0xbe072c48	-0.13200486
5	0xbe738734	-0.23782045
6	0xbd72b4e0	-0.059254527
7	0x3e40acae	0.18815872
8	0xbe043a38	-0.12912834
9	0xbdd1e122	-0.10248019
10	0xbe39de89	-0.18151297
11	0xbdb59940	-0.08867121
12	0x3e338505	0.17531212
13	0x3da0d2ad	0.07852683
14	0xbe14ecb3	-0.14543419
15	0xbe62422b	-0.22095554
16	0x3d9534f8	0.072854936
17	0xbd325867	-0.04354134
18	0x3de291ba	0.110629514
19	0x3e41e586	0.18935212
20	0xbe2fc31c	-0.17164272
21	0xbe3caed8	-0.18426073
22	0xbaba87a0	-0.0014231093
23	0x3d546ac5	0.051859636
24	0x3e0189f0	0.12650275
25	0x3e3e3d3b	0.18578045
26	0xbd79d95e	-0.060998313
27	0xbe411c58	-0.18858469
28	0xbd72b34d	-0.059253026
29	0xbe16463f	-0.14675234
30	0xbdbdce88	-0.09267908
31	0xbcedae20	-0.029013693
32	0xbd48c0e0	-0.049012065
33	0xbd9d6940	-0.076860905
34	0x3e716d74	0.2357691
35	0xbd939d48	-0.072077334
36	0xbe5bc1d4	-0.21460658
37	0xbe24e8c0	-0.16104412
38	0x3e7ef56c	0.24898309
39	0xbdf80270	-0.1210984
40	0x3e5670fc	0.20941538
41	0x3dbf49a0	0.09340215
42	0xbe663bb0	-0.22483706
43	0xbe2ee3c8	-0.17079079
44	0xbe50e65c	-0.20400375
45	0xbe55de8c	-0.20885676
46	0x3dc51220	0.09622598
47	0x3e305050	0.17218137
48	0x3d20f8c0	0.039299726
49	0x3e65deb8	0.22448242
50	0xbdeb1938	-0.114794195
51	0x3da8e830	0.08247411
52	0x3d5688e0	0.052376628
53	0xbcf2d360	-0.029641807
54	0xbda359c0	-0.07976103
55	0xbe38dc20	-0.18052721
56	0xbe025e90	-0.12731385
57	0x3d434f40	0.047683
58	0xbd45ba90	-0.048273623
59	0xbdb76cf8	-0.08956331
60	0x3e1119b0	0.14169955
61	0xbe1453e4	-0.14485127
62	0x3e165c44	0.14683634
63	0x3d69ba60	0.057062507
64	0xbe527474	-0.20552236
65	0xbd65d3c0	-0.056110144
66	0x3e5e88cc	0.21731871
67	0x3d576840	0.052589655
68	0x3d318a5e	0.043344848
69	0x3d606c23	0.054790627
70	0x3da1f458	0.07907933
71	0x3e33b17a	0.1754817
72	0xbad239eb	-0.0016038989
73	0x3de49961	0.11162067
74	0x3e5ed427	0.21760617
75	0xbe28dd20	-0.16490602
76	0x3e5bd0cc	0.21466368
77	0xbdd3cd9d	-0.10341952
78	0x3c7a43df	0.015274971
79	0xbd9f56ab	-0.077802025
80	0x3e3e3234	0.18573838
81	0x3dc2f968	0.09520227
82	0xbd8144d8	-0.06311959
83	0x3e5d5a49	0.21616472
84	0x3e0f977c	0.1402263
85	0x3ddf2458	0.10895604
86	0xbd4deab3	-0.050272655
87	0x3e60afc5	0.21942051
88	0xbe076f2c	-0.13226002
89	0x3e84222a	0.25807315
90	0xbe29e83d	-0.16592498
91	0x3dba4178	0.090945184
92	0xbe45d724	-0.19320351
93	0xbdc351bd	-0.09537075
94	0x3df03410	0.1172868
95	0x3db01cf8	0.08599275
96	0x3d406200	0.04696846
97	0xbd894908	-0.06703383
98	0xbdc266d8	-0.09492272
99	0x3d890e18	0.06692141
100	0xbdc77c16	-0.097404644
101	0xbdef38bc	-0.11680743
102	0x3de71e90	0.11285126
103	0xbdf86eb6	-0.121304914
104	0x3dd46766	0.10371284
105	0xbe3eed84	-0.18645293
106	0x3be374d5	0.0069414177
107	0x3e4d90c0	0.20074749
108	0xbb4693d1	-0.0030300508
109	0xbcb0d333	-0.021585083
110	0x3b1ad3a8	0.0023624692
111	0x3e8bfd2d	0.27341595
112	0xbe4e1c38	-0.20127952
113	0x3c863467	0.01638241
114	0x3e2f4b83	0.17118649
115	0xbdb0c245	-0.08630804
116	0xbe41ef80	-0.18939018
117	0xbe1107c4	-0.14163119
118	0x3e677d38	0.22606361
119	0x3e554757	0.20827995
120	0xbde3c6f8	-0.11121935
121	0xbe13006c	-0.1435563
122	0xbdabdb64	-0.08391455
123	0xbc2a2380	-0.01038444
124	0xbe7f6691	-0.2494147
125	0x3d420ac2	0.04737354
126	0x3e5b46e0	0.21413755
127	0xbe796140	-0.24353504
128	0xbe0c7514	-0.13716537
129	0x3c402440	0.011727393
130	0x3e30e00c	0.17272967
131	0x3e1986f0	0.14992881
132	0xbdab03dd	-0.08350346
133	0x3dcb68d2	0.09932102
134	0x3d1f99b0	0.038964927
135	0x3e6969fd	0.22794338
136	0x3deb5323	0.114904664
137	0x3d84d52e	0.06485973
138	0x3d9577ec	0.07298264
139	0xbdcc7f10	-0.09985173
140	0xbdcac4ff	-0.09900855
141	0x3e249ae3	0.1607471
142	0x3e652112	0.22375897
143	0x3deba3fe	0.115058884
144	0xbbad7800	-0.005293846
145	0xbe08fd34	-0.1337784
146	0xbe1a717b	-0.15082352
147	0xbe874dce	-0.26426548
148	0xbde74e40	-0.11294222
149	0xbe412f0c	-0.18865603
150	0x3dc29cd4	0.09502569
151	0x3ce582b7	0.028016431
152	0x3e006794	0.12539512
153	0xbe641d54	-0.22276813
154	0xbe56542d	-0.20930548
155	0xbd3b5090	-0.045731127
156	0xbe13e186	-0.14441499
157	0x3dccb7e0	0.09996009
158	0xbe319fe0	-0.17346144
159	0xbd9765e0	-0.07392478
160	0xbe40d6e8	-0.1883198
161	0x3e1f3fb4	0.15551645
162	0x3d8e5fc8	0.069518626
163	0x3e01ddf8	0.1268233
164	0x3e2ddd2b	0.169789
165	0xbd6a0bc4	-0.057140127
166	0xbe33c310	-0.17554879
167	0x3e782781	0.2423382
168	0xbde8bbf2	-0.11363973
169	0xbe0aea9c	-0.13566059
170	0x3e1213e6	0.14265403
171	0xbdcf0620	-0.1010859
172	0x3e0264f0	0.12733817
173	0xbd0a1cb3	-0.033718776
174	0xbd4e4e1e	-0.050367467
175	0x3d57d675	0.052694757
176	0x3e2db450	0.16963315
177	0x3da60177	0.08105748
178	0x3e889088	0.2667277
179	0xbd1675b4	-0.036733344
180	0x3e1180cc	0.14209288
181	0xbbedca00	-0.0072567463
182	0xbd5497b9	-0.051902507
183	0x3d99e2c8	0.07513958
184	0x3e116d0c	0.14201754
185	0xbe37316a	-0.17889944
186	0xbe328f19	-0.174374
187	0xbb890f00	-0.0041826963
188	0x3d13601c	0.03598033
189	0xbb751095	-0.0037393917
190	0x3e4a17f8	0.19735706
191	0xbd89bd08	-0.06725508
192	0xbe2adf20	-0.16686678
193	0xbe422520	-0.18959475
194	0x3e3afffc	0.18261713
195	0x3e6d8df0	0.23198676
196	0x3e2f2965	0.17105635
197	0xbdf5aa83	-0.11995413
198	0xbccb1220	-0.024788916
199	0xbe60b4b5	-0.21943934
200	0x3e4ad2a3	0.19806914
201	0xbca9ef3a	-0.020743955
202	0x3c653680	0.013990045
203	0xbd865030	-0.06558263
204	0x3e41564d	0.18880577
205	0xbe456bde	-0.1927943
206	0x3dbe67eb	0.092971645
207	0xbd18fc09	-0.037349734
208	0xbc1afec0	-0.009460151
209	0x3d647f12	0.055785246
210	0x3dd39ed2	0.10333027
211	0x3e543220	0.20722246
212	0xbdc74f88	-0.09731966
213	0xbe3ef94c	-0.18649787
214	0x3db64054	0.08898988
215	0x3d9bfc9b	0.0761654
216	0x3d9ba0b8	0.07599014
217	0x3db1b228	0.08676559
218	0x3d0e774e	0.034781747
219	0xbdca4da8	-0.09878093
220	0xbdf1f496	-0.11814229
221	0xbdbd12e6	-0.0923212
222	0x3d28e340	0.041232347
223	0x3dc73ed8	0.09728783
224	0xbe282fd4	-0.16424495
225	0x3d5e0260	0.054201484
226	0xbda016a0	-0.078168154
227	0xbe052788	-0.13003361
228	0x3c8907d4	0.016727366
229	0x3df5f71e	0.120100245
230	0xbe2dded8	-0.1697954
231	0xbe811642	-0.25212294
232	0xbe441ba8	-0.19151175
233	0x3da811c2	0.08206512
234	0xbe537745	-0.20650966
235	0x3e1e51dc	0.15460914
236	0xbe2fb8e3	-0.17160372
237	0xbe2eab86	-0.17057618
238	0x3e77bacb	0.2419235
239	0x3dd004d4	0.10157171
240	0x3e59d7bc	0.21273702
241	0x3e680a8b	0.22660272
242	0x3e7691e8	0.24079096
243	0xbe0ea84e	-0.1393139
244	0x3e6e03b4	0.232436
245	0x3e312378	0.17298687
246	0x3e6090b3	0.21930198
247	0xbe36c79e	-0.17849585
248	0x3c8ddb80	0.01731658
249	0x3e7ff067	0.2499405
250	0x3dd58f49	0.1042772
251	0xbd4c2790	-0.049842417
252	0xbe1f7328	-0.15571272
253	0x3e7e9404	0.24861151
254	0xbcefc360	-0.029267967
255	0x3d6fb080	0.058517933

sequential_14/dense_44/MatMul f4 [1, 64]
0	0x3d265c9e	0.04061567
1	0xbde1c7ee	-0.11024462
2	0x3dcf4377	0.1012029
3	0x3e7bc310	0.24586129
4	0xbe84567c	-0.25847232
5	0xbe7d3e41	-0.24730779
6	0x3e3796c9	0.17928614
7	0x3cfaa324	0.03059537
8	0x3e563cbb	0.20921604
9	0x3e93a85d	0.28839388
10	0xbdf879da	-0.12132616
11	0xbe4ea15d	-0.20178743
12	0xbe111027	-0.14166318
13	0xbe81ad3f	-0.2532749
14	0x3ca11bc7	0.019666566
15	0x3d2d22e5	0.042269606
16	0xbe168678	-0.14699733
17	0xbe4036a6	-0.18770847
18	0xbd7df3c4	-0.06200005
19	0x3e6b69d6	0.22989592
20	0x3e42a2e8	0.19007456
21	0xbe57c056	-0.21069464
22	0xbe336d99	-0.17522277
23	0xbdb81ed1	-0.08990253
24	0x3e2c53ca	0.16828838
25	0x3e82ccbd	0.25546828
26	0xbe15754e	-0.1459553
27	0x3e093df4	0.1340254
28	0xbda4bf85	-0.08044342
29	0xbe90fb4e	-0.2831673
30	0xbe1f132b	-0.15534656
31	0x3e3d27ad	0.18472166
32	0xbd98f1fd	-0.074680306
33	0x3ddc17a2	0.10746695
34	0xbe75fbbe	-0.24021813
35	0xbdfbbf2a	-0.12292321
36	0x3ea6e4a7	0.32596323
37	0xbe14a52e	-0.14516136
38	0x3d7eac3e	0.06217598
39	0x3e12f984	0.14352995
40	0x3e1b5334	0.15168458
41	0x3e6cbc36	0.23118672
42	0x3e1afa8f	0.15134643
43	0x3e422659	0.18959941
44	0x3e5cb296	0.215525
45	0x3e153d46	0.14574155
46	0xbe364a6d	-0.17801829
47	0xbca08025	-0.019592354
48	0xbdeffb61	-0.117178686
49	0xbdc39c7f	-0.09551334
50	0x3e5049b5	0.20340617
51	0xbe0b5bd8	-0.13609254
52	0x3e11058a	0.14162269
53	0x3dff03dd	0.12451909
54	0x3e0c5923	0.13705878
55	0x3decb7da	0.115585044
56	0x3eaac485	0.33353058
57	0x3e8ecffa	0.2789305
58	0xbdbfe879	-0.093705125
59	0x3c5ed80b	0.013601313
60	0x3e888831	0.26666406
61	0x3e4bfa4f	0.19919704
62	0x3e6ae631	0.22939374
63	0xbc0d4dc9	-0.008624502
