assets/heart.tflite (tflite, 12616 bytes, 5 tensors)

sequential_4/dense_10/BiasAdd/ReadVariableOp f4 [64]
00000000: 5fc7 ab3c 00c2 543a 5964 173c 8bda ab3a
00000010: 77a1 27bc 1a9a 5bbb 7854 513c 95ad 0dbc
00000020: a02a c6bb 7214 323a 70e6 db39 e6ea 233c
00000030: 3c05 f8bb 59df 12bd e0ec 543c 8681 f33a
00000040: cce1 91bc 2c3c 163a 06f4 303d 21a0 7b3c
00000050: addb 7d3a 4b1a c9bb 3929 a93c d185 403b
00000060: 4506 8bbc 0e5b a93c d818 5f3a 9e8a 33bc
00000070: 6bfc 773c c956 2f3d cd5a c03c 1507 9e3a
00000080: 28f6 093c c999 593b 6682 223c 0143 463d
00000090: b485 e53c aaad f53a bf55 90ba dc9d e93b
000000a0: 0851 c73a d818 993c a8dc 2c3c 8199 fe3a
000000b0: ad77 923b d4ba bb3c eb6f c539 55f5 393c
000000c0: 1fbc 32ba 02dd f1bb ab4d ed3c 0e87 193b
000000d0: dc55 503b 5220 013c 0844 ef3a da6c 39bb
000000e0: 2cd9 68bb 02b7 cb3a 765e 53ba 40ab 173c
000000f0: e5d1 51bb e8a1 cf3c 312b 63b8 23f8 94bb
0.020969091 0.00081160665 0.009240233 0.0013111396 -0.010231367 -0.00335086 0.012776487 -0.008647342
-0.0060475618 0.0006793208 0.00041942624 0.010004735 -0.0075689834 -0.035857532 0.0129959285 0.001857803
-0.017807864 0.0005731012 0.04320147 0.015358002 0.00096839183 -0.0061371676 0.02064954 0.0029376636
-0.016970763 0.020673301 0.0008510477 -0.010958342 0.015135865 0.042807374 0.023480797 0.0012056554
0.008420505 0.0033203235 0.009918785 0.048403744 0.028017856 0.0018743773 -0.0011011882 0.007129414
0.0015206644 0.018688604 0.010550655 0.001942441 0.004469833 0.022916235 0.00037658153 0.011349996
-0.00068181934 -0.0073810825 0.028967699 0.0023426446 0.0031789457 0.007881241 0.0018254528 -0.002829364
-0.0035529835 0.0015542211 -0.0008063087 0.009257138 -0.0032015976 0.025345758 -5.4161243e-05 -0.0045461818

sequential_4/dense_9/BiasAdd/ReadVariableOp f4 [32]
00000000: 2dab 49bc 41f4 2d3c 13fc 13bb 0f99 403d
00000010: 5e56 90bc afd4 5a3b 6895 64bb 7a2d 8739
00000020: 4a14 af3b 1e46 05bb 7016 f83c 09f8 333d
00000030: f91d b03c 5a8f ac3c 25b4 ac3b 477b db3c
00000040: a09b da3b 49cd 00bb 2185 123b 618e e93b
00000050: 93f0 46bb 26a8 f33c 383c c43c f9e9 3c38
00000060: ad01 17bc 3cb6 c93c 9ea9 4fbb 19a5 85bc
00000070: d0b2 66bc f732 af3c 4125 273d 121e a93c
-0.012308878 0.010617317 -0.0022580668 0.047020968 -0.017619308 0.003339093 -0.0034879092 0.0002578309
0.005342995 -0.0020335983 0.030284137 0.043937717 0.021498667 0.02106445 0.0052704983 0.026792182
0.006671384 -0.001965361 0.0022357183 0.0071275686 -0.0030355796 0.029743265 0.023954496 4.5040597e-05
-0.009216708 0.024623029 -0.0031686793 -0.016314076 -0.014080718 0.021386607 0.040807012 0.020644221

sequential_4/dense_9/MatMul f4 [32, 13]
00000000: 100f 943d b62e 94bc 992d 1e3e 2541 5ebd
00000010: c5bc 38be 0c67 b93e 5728 9abe ebb4 7abd
00000020: fd8a 55be 8537 983e 35c8 13be 0684 43be
00000030: 7ecd 7dbe dbdd 2d3e 8da6 25be 7086 bcbe
00000040: dac0 ab3e 2f0c 86bd d252 b7be 5495 ce3d
00000050: 7d44 013e 6026 c23e 4355 4abe 0629 55be
00000060: 6ef2 bf3e 9df8 b1be f5f4 99be 9481 febd
00000070: ac75 58be 95ae 473e 4af9 96bd 4d05 993e
00000080: 8a7b 343e 8fb5 81bd 45f2 eebd 43fd 50be
00000090: 5c64 99bd 0927 303e 76a2 28be 5d18 bfbe
000000a0: 77ad 8bbe f011 c73e fa75 3e3c 5fdf 453e
000000b0: b2cc 18be c954 acbe cc4e 233e 7833 b0bb
000000c0: 820b 433e 262f 743e 31b1 92be 267c a5be
000000d0: 2213 f73d 9b3c 96be 7ffc 87be 6fb5 25be
000000e0: 3385 aa3e 8129 f6bd 52d1 213e d1fd 9dbe
000000f0: 0a55 6dbe dc7f b0be 0f8c cbbd a371 13be
00000100: 77f2 ab3e bfde b73e 4bb0 a0be eddd 5dbe
00000110: ed44 843e 5086 153d b8db 3b3e c73e 96bd
00000120: a5ef 953d 67cf 923e 4682 b9be 3152 7e3e
00000130: 2e73 ad3d 550f 2d3e 79bd 39be 09d7 af3d
00000140: 2c4a 2b3d c55b b5be 848d bb3e 2b76 fdbc
00000150: 840e 62be 2401 ad3d fef2 31bd 81d8 2e3d
00000160: da86 97be b336 2ebe b432 133e 30d5 6ebe
00000170: 2bf2 9a3e 6eef 593e c061 9bbe a18f a63e
00000180: be9a bc3d eb8b ae3c 14ab 91bc a59b 8a3e
00000190: d7b4 a23d ea6f 52bd 0bf5 80be a022 a2be
000001a0: 4914 48be c86e 473e 6371 4a3e d476 4b3e
000001b0: fb09 99be 6e6a b2be 24c2 95bd 9a8c 06bc
000001c0: e9f4 94be 82a4 843e 3b66 8dbe c501 51be
000001d0: e0a6 4b3e 2805 20bd 9363 f43d a23b 57be
000001e0: 36b2 b43e 34dd 05be 722e 9b3c f555 983e
000001f0: def4 8b3c 8ea7 a3be 7b4f e63d 2c3c fcbd
00000200: bc4e 8c3e 4021 983e 1a06 c8bd 43e3 b1be
00000210: e5cf b0bd f8b9 b03e 7f59 b2be 4f81 0c3e
00000220: ab3e 113e 9f20 f43d 8447 b8be bcbf 4bbe
00000230: 8339 ac3e 3aab 623d 46aa 14be 1103 70be
00000240: e8a8 113e 95f1 99be 3b4c a5be 50a7 6c3e
00000250: 9f51 913e 496b acbe 4eac 3fbe 6ec3 afbd
00000260: b96c c73d a35f 3c3d ecaa c73d 467b d13e
00000270: 0a43 95bd 36fb 8dbe 28b5 91be 268f 363e
00000280: 9d56 48bd 21c7 9f3e 8a10 aabc 5a74 203e
00000290: 2e5a 483e 58c2 b33e 0b7e 463e 8864 e93d
000002a0: 5298 7d3e 80ab 0a3e 9f3f b63d b6bd 193e
000002b0: b006 73be 587b d73b fb52 003e e71c 15be
000002c0: 6934 a83d 5f59 4f3e a7f6 bb3e e069 a33c
000002d0: 5e34 893e 7969 9abd c775 973e e2b2 4c3e
000002e0: c967 963e 5003 073e 3969 8cbe 476d d1bd
000002f0: e6ab 9a3d a470 afbc 633b 79be 7326 5b3e
00000300: 9d14 f63d d1e1 683d 6bd4 7f3e 9b5e 83be
00000310: d819 a23e 011d a3be 4d5d 813e 7874 9e3e
00000320: e347 aabe 9762 f03d 6111 013e f918 8e3e
00000330: a827 67be fbfe 1fbe 1c24 c9bd 0c98 943e
00000340: 9ced b23e 00f5 1cbe 35a5 54be 3630 a3be
00000350: 5398 82be 1ef4 ddbc e696 9f3e 1870 2a3d
00000360: 6d64 9f3e fbed 83bc 8f6a b63e a732 efbd
00000370: 3ee3 81be 5ac8 943e 3e20 8fbe af0f 953d
00000380: d17a 71be 4a08 acbd a4a8 373c f303 8cbe
00000390: 7713 693e 2418 683e 4c8c 28be d7dd 043d
000003a0: 1f3a 47bd f261 b9be 318c f9bd 2fe1 633e
000003b0: 6c63 ab3e 3cc4 c03d 462f b1be 3ff6 f9bd
000003c0: 0354 adbd 2acf 7abe 5862 ee3d 83d2 b33e
000003d0: 03e4 64be 3810 0a3d bbf7 5f3d b4e7 e93b
000003e0: 401e f03d 13bf f13d 7417 89bc 9a9b b1bb
000003f0: 1c6f 4f3e 4a37 51be e34c 1fbd 3bca 1fbe
0.072294354 -0.01808868 0.15447082 -0.054261345 -0.1804076 0.3621143 -0.30108902 -0.061207693
-0.20853801 0.29729858 -0.14431842 -0.19093332 -0.2478542 0.16979162 -0.16176815 -0.36821318
0.33545572 -0.065452926 -0.35805374 0.10087076 0.12623782 0.37919903 -0.19759087 -0.2081643
0.37489647 -0.3475999 -0.300697 -0.12427059 -0.21138638 0.19500192 -0.07371767 0.29886857
0.17625251 -0.06333458 -0.11667303 -0.20409112 -0.07489845 0.1720239 -0.16468224 -0.37323275
-0.2728078 0.38880873 0.0116248075 0.1932349 -0.14921835 -0.33658436 0.15948027 -0.0053772293
0.19047359 0.2384611 -0.2865081 -0.3232128 0.12064196 -0.29343113 -0.26559827 -0.16182493
0.33304748 -0.12019635 0.15802506 -0.3085771 -0.23176971 -0.3447255 -0.099388234 -0.14398818
0.33583423 0.3591213 -0.313845 -0.21666689 0.25833836 0.036505044 0.18345535 -0.073361926
0.07321099 0.2867386 -0.36232203 0.24836041 0.084692344 0.1690038 -0.18138684 0.085859366
0.041818783 -0.35421577 0.36631405 -0.030940136 -0.2207585 0.08447483 -0.043444626 0.042686943
-0.2959507 -0.17013054 0.1437481 -0.23323512 0.30262884 0.21282741 -0.30348015 0.32531455
0.09209202 0.021306952 -0.017781772 0.27071872 0.07944649 -0.05137626 -0.25186953 -0.31667042
-0.19538988 0.19475853 0.19769816 0.19869548 -0.29890427 -0.34846824 -0.0731242 -0.008212233
-0.29093102 0.2590676 -0.27617058 -0.20410831 0.19887877 -0.039067417 0.11933055 -0.21018842
0.35292214 -0.13072664 0.018943045 0.2975308 0.017084535 -0.31963772 0.112456284 -0.123161644
0.2740382 0.29712868 -0.09766789 -0.347437 -0.08633403 0.34516883 -0.34833905 0.13721202
0.14184062 0.119202845 -0.35992062 -0.1989736 0.33637628 0.055339076 -0.14518079 -0.2343867
0.14224589 -0.30067125 -0.32284722 0.231107 0.28382584 -0.33675602 -0.18718073 -0.08582197
0.09737534 0.045989644 0.09749398 0.40914363 -0.07288177 -0.2773072 -0.28458524 0.17828044
-0.048910726 0.3120661 -0.02075984 0.15669385 0.19565651 0.3510921 0.19384019 0.11396128
0.24765137 0.13541985 0.088988535 0.15013775 -0.2373302 0.006575983 0.12531655 -0.14561807
0.082131214 0.20248936 0.36711618 0.019947946 0.26797765 -0.075396486 0.29582044 0.19990113
0.29376057 0.13184857 -0.2742403 -0.10225921 0.07552318 -0.021416016 -0.2433906 0.21401386
0.120156504 0.05685598 0.24983375 -0.25658116 0.31660342 -0.31858066 0.25266495 0.30948234
-0.3325797 0.117375545 0.12604286 0.27753428 -0.22573721 -0.15624611 -0.098213404 0.29022253
0.34946907 -0.15327835 -0.20766146 -0.3187272 -0.2550684 -0.027093943 0.31169814 0.041610807
0.31131306 -0.016104689 0.35628173 -0.11679583 -0.25368685 0.29059106 -0.27954286 0.07278382
-0.23582007 -0.084000185 0.011209641 -0.27346763 0.22761331 0.22665459 -0.16459769 0.032438125
-0.048639413 -0.3620754 -0.121849425 0.2225387 0.3347429 0.09412429 -0.3460638 -0.12205171
-0.084632896 -0.2449309 0.11639851 0.35121545 -0.22352605 0.033706874 0.054679614 0.007138217
0.1172452 0.11804023 -0.016734816 -0.0054201605 0.20257229 -0.20431247 -0.038891684 -0.15604489

sequential_4/dense_10/MatMul f4 [64, 32]
00000000: eb83 b6bd 62aa ffbd c26f 5b3c 2270 813d
00000010: 3310 ce3c c03c 7c3e ce65 f2bd 532d b6bd
00000020: 25ae 7abd fee9 c9bd d328 343e b419 1fbe
00000030: 0282 b1bd 6a38 05be 28e5 023e 6b46 30be
00000040: 5580 6f3e e128 2dbe 1140 843c b0be 53be
00000050: 0a73 6dbe cbe0 1d3d 6c27 003e f988 01be
00000060: c9ba 4a3e 1dad 493e 44fd 39bd 81e2 b23c
00000070: 67ad 4b3e 745e d2bd 45e4 c9bd 59ed 4e3e
00000080: 3439 9d3d aba8 403e 03d6 4d3e 5b08 58be
00000090: 46b1 d7bd c9af c73d 9e1a 9dbd 18fd 4ebd
000000a0: b22b 5c3e 2668 543c 982b edbd d088 0fbe
000000b0: 1883 663d 57ff eebd 6cf1 fbbd 8101 9bbc
000000c0: c51b 1d3d 0fa0 233e 1619 f5bd d7ae 603e
000000d0: 7f86 2c3e e2bc 33bd 1b8d a63b eab8 6dbe
000000e0: 817b 8dbc 1270 1b3d b35e 1a3e 7b02 163e
000000f0: 7e61 f23d 0755 40be cb98 063d 7f70 63be
00000100: c1de 5d3e 3033 4ebe 2440 2dbe 4c39 06be
00000110: 9b20 babc 849e 22bc b510 ae3d b23e 943d
00000120: f922 9fbb 7369 053e 3eaf ce3c 48a4 be3d
00000130: faa5 1d3d 558e 693e 3fe6 793e edae 8c3e
00000140: fa16 b33c 1826 373d ab8c 403e db69 96bd
00000150: 707e 2ebd 82cc 363e 5f86 89bc fbde 4d3e
00000160: cfbd 453e b0e6 04bd 2e44 313d 76f8 2a3d
00000170: ca41 f23d ca66 38be c911 503c b36e 13be
00000180: c6ca c33c 058d 18be 3ab7 c33d f102 c3bd
00000190: 287b 58be 0e72 7a3d bda8 f03d a27f e93c
000001a0: 2398 12be e695 583e bbcf d7bb bf8e b7bc
000001b0: 6862 7c3c e086 ef3d ec4a d73d f14a 47bd
000001c0: 371a 2d3e 55f0 29bd 526a 2b3c b14f f1bc
000001d0: b1fe 6fbd 9394 35be 6856 903d ee0d c73c
000001e0: c085 3c3e d425 8c3d 58d3 20be fc31 fb3c
000001f0: 6467 41be a291 7abe 1f75 163e 6228 f7bd
00000200: 2871 71be b7eb 1c3e 87b5 92bd 3236 2abe
00000210: 1ebc 46be 316d eebd 9057 103e 1f53 a93c
00000220: 1295 72be 3326 ea3d dba0 943d fce8 2cbe
00000230: c47f 5c3e 4272 79be 294f e2bd a25b 463e
00000240: 9254 7cbd 9cbf f43d 6809 fa3a 4da1 943d
00000250: fabd 713d ab19 1ebe 02de dfba cb1f 8abd
00000260: 8f35 1abd cde3 213e be0d 01be 8472 4dbe
00000270: bf73 b83b c2d6 ee3d ddd1 08be ca68 e1bb
00000280: 3cb3 3fbe 9469 453e e8fa 723e da71 22be
00000290: 4af4 683e be29 2d3e f6cf e0bd 77e0 5bbe
000002a0: 5541 613e cf23 47bd eddf 5b3e f334 933d
000002b0: b823 50be 31a5 443d 48d3 5fbd 83b2 433e
000002c0: 896d 883d 1074 793d 717a 193e ed50 45be
000002d0: 9204 61be 1eb6 513d b60b ccbd 62a8 7b3e
000002e0: 4f0a 9dbc 9710 4fbd 5602 253d ddbd 93bd
000002f0: 6706 3abe 96b9 c73d 9549 5abe c8a0 d13a
00000300: 6d9b 1fbe e32d fd3c 3ce3 dd3c c1d0 6cbe
00000310: 08a6 f5bd 442b f33d fffd 5bbe a238 59be
00000320: 47c3 293e ed04 3ebd 60ed 71bc 0f94 cabd
00000330: 4f48 46be 6658 363e 83e6 3dbe a3be 6fbe
00000340: 7a42 353e e4a2 b33d 896b 22be 1c33 79be
00000350: fbab c2bb 3f83 8cbd 8655 363e c063 c03d
00000360: fdd1 6dbe 7bba febd ceab 493e f439 00be
00000370: f498 53be 664c 1b3d 2050 fa3d 2775 043e
00000380: 5683 48be f1e9 09be 806c 5bbe e9f4 4c3e
00000390: f4cf 6c3c bb71 1ebe 02fe 08bd db22 3f3d
000003a0: 31f3 72be da71 263e c606 ef3b 3a92 b1bd
000003b0: ee61 393d cae4 0fbc 8da0 b4bc 8fd2 7ebe
000003c0: 2519 5f3e b022 d9bd 21e5 2dbe 8722 a3bd
000003d0: 394e 203c 5feb 3d3e 0445 2cbd 5bb3 f3bb
000003e0: 2ab8 393e 1e1e 13be 47c7 b6bd 5d23 1b3d
000003f0: f2d0 bbbd 6d82 3e3e 2ff0 1e3d ef1d 97bd
-0.0891188 -0.1248367 0.013393344 0.06320216 0.025154209 0.2463255 -0.11835824 -0.08895364
-0.061201233 -0.098590836 0.17593698 -0.15537149 -0.08667375 -0.13009802 0.12782729 -0.17214362
0.23388799 -0.16910125 0.01614383 -0.2067821 -0.23188415 0.038544457 0.12515038 -0.12649907
0.19797815 0.19694944 -0.04540755 0.021836521 0.19890366 -0.10271922 -0.09857992 0.20207728
0.07676926 0.18814342 0.2010117 -0.21096937 -0.10531859 0.09750325 -0.076710925 -0.050534338
0.21501043 0.012964284 -0.115805805 -0.14017034 0.056277364 -0.11669796 -0.12301907 -0.018921616
0.03835656 0.15979026 -0.119676754 0.21941696 0.16848181 -0.043881305 0.005082739 -0.2321507
-0.017270805 0.037948675 0.15075187 0.14649384 0.118350014 -0.18782435 0.03286056 -0.22210883
0.21667005 -0.20136714 -0.16918999 -0.13107795 -0.022720626 -0.009925488 0.0849928 0.07238521
-0.004856464 0.13028507 0.025230046 0.09308678 0.038488366 0.22808202 0.24404238 0.27477208
0.021861542 0.044714063 0.1880366 -0.07344409 -0.04260105 0.17851451 -0.016787706 0.20104592
0.19310687 -0.032446563 0.04327791 0.041740857 0.118289545 -0.18007961 0.012699553 -0.14397697
0.0239004 -0.14897545 0.09556432 -0.095220454 -0.2114073 0.061143927 0.11750934 0.028503243
-0.14315848 0.21150932 -0.0065860427 -0.022406934 0.015404321 0.11695647 0.10512337 -0.048655454
0.16904531 -0.041488964 0.01046236 -0.029456945 -0.058592502 -0.17732458 0.07047731 0.024298634
0.18410397 0.06843153 -0.15705621 0.030663483 -0.18887097 -0.24469617 0.14693116 -0.12068249
-0.23578322 0.15324293 -0.0716353 -0.16622236 -0.19407699 -0.1164192 0.14095902 0.020669518
-0.23689678 0.11433067 0.07257243 -0.16885751 0.21533114 -0.24359992 -0.11050255 0.19370893
-0.06160409 0.11950609 0.001907629 0.07257328 0.059019066 -0.15439479 -0.0017079713 -0.06744345
-0.037648734 0.15809555 -0.12602898 -0.20063215 0.0056290324 0.116620556 -0.13361306 -0.006878947
-0.18720716 0.19278556 0.23728526 -0.15863743 0.22749439 0.16910455 -0.109771654 -0.21472345
0.21997578 -0.048618134 0.2147214 0.07187834 -0.20326126 0.0480091 -0.054644853 0.19111066
0.06661517 0.0609017 0.14988114 -0.19269152 -0.219744 0.05119907 -0.09963171 0.24575952
-0.019169955 -0.05055293 0.04028543 -0.07213948 -0.18166505 0.097521946 -0.21317132 0.0015993351
-0.15586634 0.03090567 0.027085893 -0.23126508 -0.119945586 0.11873487 -0.2148361 -0.2121301
0.16578399 -0.046391416 -0.014766067 -0.09891521 -0.19363521 0.17807159 -0.18544964 -0.23412566
0.1770114 0.08771303 -0.15861334 -0.24335903 -0.005940912 -0.06860971 0.17806062 0.09394026
-0.23224635 -0.12437912 0.19694445 -0.12522107 -0.20663816 0.037914656 0.12222314 0.12935315
-0.1958135 -0.13468148 -0.21428108 0.20015301 0.014453877 -0.15473072 -0.033445366 0.0466641
-0.23725583 0.16254368 0.0072945086 -0.08670469 0.04525941 -0.008782575 -0.022049213 -0.24885009
0.21786936 -0.10602319 -0.16981937 -0.0796557 0.009784275 0.18546818 -0.042058006 -0.0074371523
0.1813666 -0.14366958 -0.08924728 0.037875522 -0.091707125 0.18604441 0.038803276 -0.07378756

sequential_4/dense_11/MatMul f4 [1, 64]
00000000: a654 443e 82e0 eabd 1f61 b4be efb6 50bd
00000010: 5743 df3d 401e 193c 1312 913e c050 9fbd
00000020: d7de 8e3e 655c 13bd 1ffc 9abc d06c 2a3e
00000030: d7ff 9cbd 593a 62be c30e 7abe 7cb0 3d3d
00000040: 0ab6 683e ff1c 2bbd d52a d5be 8e95 343e
00000050: 5a51 ac3d 7881 bbbc d88c bdbe 765d b0bd
00000060: b5c0 6ebe 6315 6b3e c52c 59be 4f81 76be
00000070: 58e1 033e 6abd 9d3e 705f 93be 7a70 943e
00000080: 2fa0 00be eed9 e13d b2dd 25be 4787 9a3e
00000090: ca5d a13e 7999 163d b667 c63c 1f9b 2e3e
000000a0: cc66 05be 6dbd c9be 7d48 293e 8df6 bf3d
000000b0: 233b 473e 3e55 48be 7081 9bbc 5449 263e
000000c0: a779 923c ce65 0fbe 27a7 9ebe 753c c6bd
000000d0: 50cb 033d e1c2 dfbd cc6b 02be 952e c23d
000000e0: f6f2 05be b2ad 1e3d fe5b 9d3d 7782 cb3d
000000f0: 34f5 623e bbc4 b03e 4d9e f2bb 183b 1e3e
0.19172916 -0.11468603 -0.35230348 -0.05095571 0.10901516 0.009345591 0.28334102 -0.07779074
0.27904388 -0.035976786 -0.018919049 0.16643071 -0.07665985 -0.2209257 -0.24419694 0.046310887
0.22725692 -0.0417757 -0.4163424 0.17635176 0.08413954 -0.022888884 -0.37021518 -0.08611576
-0.233157 0.22957377 -0.21208484 -0.24072765 0.1287893 0.30808574 -0.2878375 0.28992063
-0.12561105 0.11027895 -0.16197851 0.30181333 0.31516868 0.036767457 0.024219375 0.17051362
-0.13027495 -0.39402333 0.16531558 0.09373198 0.19456153 -0.19563767 -0.018982619 0.1623891
0.017880274 -0.14003679 -0.30986902 -0.096795 0.032176316 -0.10925842 -0.12736434 0.09481541
-0.13080963 0.038739868 0.07683562 0.099369936 0.2216385 0.34525093 -0.007404125 0.1545223
